p1_navigation/best_model.pth (torch, 29739 bytes, 6 tensors)

fc1.weight f4 [64, 37]
0	0xba9a2ac6	-0.0011762015
1	0xbc7ae3f7	-0.01531314
2	0xbd7a8795	-0.061164457
3	0xbd80ed94	-0.062953144
4	0xbcf313ee	-0.02967259
5	0xbb31cb48	-0.0027129222
6	0x3dbee7ba	0.09321542
7	0x3e041896	0.12900004
8	0x3da50fc0	0.08059645
9	0x3d8359c1	0.064136036
10	0x3e8bbdb2	0.27293164
11	0xbf219709	-0.63121086
12	0xbf10e53e	-0.56599796
13	0xbef660fc	-0.48120868
14	0xbfe8185a	-1.8132432
15	0x3d64abc4	0.05582787
16	0x3cf3046b	0.029665193
17	0x3d80af9f	0.06283497
18	0x3d5d35cb	0.05400638
19	0x3cf52da2	0.029928986
20	0x3d8f448c	0.06995496
21	0x3dd6a4fb	0.10480686
22	0x3db2b852	0.087265626
23	0x3d630c4f	0.05543166
24	0xbd14c253	-0.036318135
25	0xbb1aa52a	-0.002359698
26	0x3d3c72b4	0.046007827
27	0xbca2502a	-0.019813616
28	0x3c9b9517	0.01899199
29	0x3b32b922	0.0027270992
30	0xbd23c163	-0.03997935
31	0x3d308385	0.043094177
32	0x3d17058d	0.036870528
33	0xbbfe15fa	-0.0077540847
34	0x3c1c036f	0.009522303
35	0xbcfe476f	-0.031039922
36	0x3bc10105	0.005890014
37	0x3e14a52a	0.1451613
38	0x3e0f963d	0.14022155
39	0x3d9ec89d	0.07753108
40	0x3af447d9	0.0018637135
41	0xbd3814ec	-0.044941828
42	0xbd0751e7	-0.033037093
43	0x3bc39628	0.0059688278
44	0xbe2591ec	-0.16168946
45	0xbd9dce11	-0.0770532
46	0xbe8b1d12	-0.27170616
47	0x3d9a986c	0.075486034
48	0x3c8593e3	0.01630587
49	0xbd09654c	-0.03354387
50	0x3e2380dc	0.15967125
51	0x3e618bc0	0.22025967
52	0x3db45065	0.088043965
53	0x3d5e5038	0.05427572
54	0xbb8bf400	-0.0042710304
55	0xbd0821ab	-0.033235233
56	0x3c9bc204	0.019013412
57	0xbe548d51	-0.20757033
58	0x3c0428a2	0.008066328
59	0xbd98a6dd	-0.07453702
60	0x3d929b39	0.071585126
61	0x3d57e047	0.052704122
62	0xbd149aff	-0.03628063
63	0x3d495cd5	0.049160797
64	0x3c499031	0.012302444
65	0xba863ad6	-0.0010240923
66	0x3e16587e	0.14682195
67	0x3ded0088	0.11572367
68	0x3e1c6c4d	0.15275688
69	0x3db3e7d8	0.08784455
70	0xbe536229	-0.20642914
71	0xbe3a0d42	-0.1816912
72	0xbb941c00	-0.0045199394
73	0x3cfddcc8	0.030989066
74	0x3cefa98a	0.029255647
75	0x3e68df2f	0.22741388
76	0x3d67b2d1	0.056567017
77	0x3d5a428c	0.05328612
78	0xbd58caf8	-0.05292794
79	0xbf10e721	-0.56602675
80	0x3dbaf51c	0.09128782
81	0x3eab810e	0.33496898
82	0x3d30b58f	0.043141898
83	0xbe964151	-0.29346707
84	0x3cab12d8	0.020883009
85	0x3c1da676	0.009622207
86	0x3d8a299f	0.0674622
87	0xbb092d59	-0.002093157
88	0xbd55cd32	-0.052197643
89	0xbe43c29d	-0.19117208
90	0x3e41e7ff	0.18936156
91	0x3e1418e9	0.14462627
92	0x3e5634a3	0.20918517
93	0xbc882a37	-0.016621692
94	0x3cf5ef15	0.03002123
95	0xbd04f640	-0.032461405
96	0x3d33a84b	0.04386167
97	0xbdd4e3b5	-0.10394994
98	0xbd5b5dc6	-0.053556226
99	0xbecaa040	-0.39575386
100	0x3e81a168	0.25318456
101	0x3e149041	0.14508153
102	0x3d3cfadd	0.04613768
103	0xbe8a96e9	-0.2706826
104	0xbe71546f	-0.23567365
105	0xbd1d23b7	-0.03836414
106	0x3cc4ea2d	0.024037445
107	0xbd885c74	-0.06658259
108	0x3ddfe422	0.10932185
109	0xbc3c97f0	-0.011510834
110	0x3ceb71cc	0.028740786
111	0x3e310389	0.17286505
112	0xbe079043	-0.13238625
113	0x3e232889	0.15933432
114	0x3dc325e3	0.09528711
115	0xbd6b6051	-0.0574649
116	0xbe3977c8	-0.18112099
117	0xbcad1e78	-0.021132693
118	0x3e0492d6	0.12946638
119	0x3db0fead	0.086423256
120	0xbd9b2a78	-0.0757646
121	0x3e241e41	0.16027166
122	0xbe3e7a0c	-0.18601245
123	0x3d57a78c	0.05265002
124	0xbe928355	-0.28615823
125	0xbf49769e	-0.7869662
126	0xbe0277ae	-0.12740967
127	0x3cd524de	0.026018556
128	0xbd50469c	-0.05084859
129	0xbe091ea7	-0.13390599
130	0x3d7c22c6	0.0615566
131	0x3dd8d917	0.105882816
132	0x3dbfc8d5	0.093644775
133	0xbde2f571	-0.110819705
134	0x3cd9610d	0.026535535
135	0x3c33ef88	0.010982402
136	0x3c12bb24	0.008955751
137	0xbd7c2f48	-0.06156853
138	0x3dd243ed	0.10266862
139	0x3dea7d6d	0.11449704
140	0x3e6843e6	0.22682151
141	0x3d09d45c	0.033649787
142	0x3df3082a	0.118667915
143	0x3e2f3387	0.171095
144	0xbdd8e84a	-0.105911806
145	0xbe8b9d5a	-0.27268487
146	0x3dfef5d9	0.124492355
147	0x3c13908e	0.0090066325
148	0xbdb28016	-0.08715837
149	0xbec48d97	-0.38389274
150	0x3c9b2f27	0.018943382
151	0xbec48266	-0.38380736
152	0xbe66da27	-0.22544156
153	0x3c25ea5f	0.010126679
154	0x3e1adeab	0.15124004
155	0xbe578f97	-0.21050869
156	0xbe8eddd1	-0.27903607
157	0xbe78040a	-0.24220291
158	0xbdb24bf0	-0.0870589
159	0xbe5192f8	-0.2046622
160	0x3ce10512	0.027468238
161	0xbe2b0bad	-0.16703673
162	0xbe0d8a64	-0.13822323
163	0x3c97e654	0.018542446
164	0xbddc1bc1	-0.10747481
165	0xbe2bbf59	-0.16772212
166	0xbec67d9e	-0.38767713
167	0xbea3d9ad	-0.3200201
168	0xbe049b77	-0.1294993
169	0xbda86767	-0.082228474
170	0xbb8c6148	-0.0042840578
171	0xbc5f9474	-0.013646234
172	0x3d7f9eb8	0.062407225
173	0x3c1a66c7	0.009423918
174	0xbe18ef3f	-0.14935015
175	0x3e0cb363	0.13740306
176	0xbe08c02c	-0.13354558
177	0xbdbe5989	-0.09294421
178	0x3d4ac4da	0.04950414
179	0xbdb0d695	-0.08634678
180	0xbc7c5076	-0.015400043
181	0xbd847443	-0.06467488
182	0x3e27d243	0.16388802
183	0xbb16bccb	-0.0023000713
184	0x3d255247	0.04036167
185	0x3d5f465f	0.05451047
186	0xbda7cc55	-0.0819327
187	0x3d9a0fd6	0.07522552
188	0x3ba57b7a	0.00505012
189	0x3ab9006c	0.0014114506
190	0x3dbc9a93	0.0920917
191	0x3e559a00	0.20859528
192	0x3de3d602	0.11124803
193	0x3c70bfd5	0.014694174
194	0xbe2962a1	-0.1654153
195	0xbe336fe4	-0.17523152
196	0x3ded6926	0.11592321
197	0x3c5698b4	0.013097931
198	0xbd9dad6c	-0.07699093
199	0xbcf8b8d3	-0.030361569
200	0x3e2ee78d	0.17080517
201	0xbd6a4ebf	-0.057204004
202	0xbc844239	-0.016144859
203	0xbdd7f0f8	-0.10544008
204	0xbe5c9830	-0.2154243
205	0x3e3432be	0.17597482
206	0x3d873722	0.066023126
207	0x3c0bf7f5	0.008543004
208	0x3e673ed9	0.22582568
209	0x3dbdb665	0.092633046
210	0xbda7e9a6	-0.08198862
211	0xbe292cd0	-0.16521001
212	0x3ccea0e7	0.025223209
213	0x3ecfac47	0.40561125
214	0x3ddbbbfc	0.107292145
215	0x3e40fc8e	0.18846342
216	0xbe5a5486	-0.21321306
217	0xbe919b07	-0.2843859
218	0xbd365f30	-0.04452437
219	0xbf2feef3	-0.6872398
220	0x3d4cf93f	0.050042387
221	0x3aac9af4	0.0013168738
222	0x3ea23122	0.3167811
223	0xbe3e1993	-0.18564443
224	0xbe4d5b6e	-0.20054409
225	0xbe9fff1f	-0.3124933
226	0xbfabd3da	-1.3424027
227	0x3c6d1c43	0.01447207
228	0xbd936c65	-0.07198409
229	0x3d089698	0.033346742
230	0xbe187114	-0.14886886
231	0x3da71c6d	0.08159719
232	0x3d03fdb9	0.03222439
233	0x3e2aeeb1	0.16692616
234	0x3dc2b93b	0.09507986
235	0xbdfdd83d	-0.1239476
236	0xbdc89f8b	-0.097960554
237	0xbdd6464a	-0.10462625
238	0x3c22a516	0.009927055
239	0x3daab7d9	0.083358474
240	0x3d0ef4ce	0.034901433
241	0x3e91e056	0.28491467
242	0xbcc2008a	-0.023681898
243	0x3d046bc7	0.032329347
244	0x3c7f360c	0.015576851
245	0x3cc539d1	0.02407542
246	0x3e11d872	0.14242724
247	0xbd8dc0ce	-0.0692154
248	0xbe025aa4	-0.12729889
249	0x3d360805	0.04444124
250	0x3d0fc2b1	0.03509778
251	0x3af2860b	0.0018503083
252	0xbcc4bf7b	-0.024017086
253	0x3dd27381	0.10275937
254	0x39428c78	0.0001855361
255	0x3d69f1d7	0.057115402

fc1.bias f4 [64]
0	0x3e18ceb4	0.14922601
1	0xbd59a122	-0.053132184
2	0xbe0fdeeb	-0.1404988
3	0xbcbc8c7b	-0.023016205
4	0x3e20230f	0.15638374
5	0xbcd741a8	-0.026276425
6	0xbd9c8dc4	-0.07644227
7	0x3db26e0c	0.08712396
8	0x3c3878b7	0.011259249
9	0xbe4a58b3	-0.19760399
10	0x3dcae52e	0.09906994
11	0x3e10d086	0.14142045
12	0x3e31fc1b	0.17381327
13	0x3d808856	0.06276004
14	0xbde14d87	-0.11001115
15	0xbd933b73	-0.071890734
16	0x3d98d1bc	0.07461879
17	0xbca2548d	-0.019815708
18	0xbc34c9df	-0.011034458
19	0xbdefece3	-0.117151044
20	0xbe2888da	-0.16458455
21	0x3d967ab2	0.07347621
22	0xbdf1be09	-0.118038245
23	0xbda0ef2a	-0.07858117
24	0xbde4b5b4	-0.111674696
25	0x3d8a6385	0.06757263
26	0x3ca01aa8	0.01954396
27	0xbe4fc635	-0.20290454
28	0x3e119437	0.14216696
29	0x3df03844	0.11729482
30	0xbdaf0a95	-0.0854694
31	0xbdafba4e	-0.08580457
32	0x3e341c56	0.17588934
33	0x3d57c4dd	0.052677978
34	0xbe235aed	-0.15952654
35	0x3ce080ba	0.027405132
36	0xbd5a9af0	-0.053370416
37	0x3cac342e	0.021020975
38	0xbc9a9216	-0.018868487
39	0xbe104440	-0.14088535
40	0xbd8678db	-0.0656602
41	0xbc17a762	-0.009256216
42	0x3c252a46	0.01008088
43	0x3e282ce9	0.16423382
44	0x3d7196ca	0.058981694
45	0xbdd96a5d	-0.1061599
46	0x3d00747a	0.03136108
47	0xbe31af4d	-0.17352028
48	0xbdd5ceab	-0.104398094
49	0x3d99d7b6	0.07511847
50	0xbdf087e3	-0.11744668
51	0x3cb2b627	0.021815373
52	0xbd82a3e6	-0.063789174
53	0xbd3e4615	-0.046453554
54	0xbe46fb72	-0.19431856
55	0x3c07ae9e	0.008281378
56	0x3ddd969a	0.108197406
57	0xbdc43cc2	-0.09581901
58	0xbd8f8b94	-0.07009044
59	0xbdb43a7d	-0.08800218
60	0xbc0a45af	-0.008439465
61	0x3d42ce93	0.047560286
62	0x3e0af339	0.13569345
63	0xbcd57fae	-0.026061859

fc2.weight f4 [64, 64]
0	0x3c290050	0.010315016
1	0x3d49eae1	0.049296264
2	0x3e062fdd	0.13104196
3	0x3b371221	0.002793439
4	0x3d966552	0.07343544
5	0xbe0a6f30	-0.13518977
6	0xbe8c842c	-0.2744459
7	0xbd5a5ea7	-0.053312924
8	0xbe50353c	-0.20332807
9	0x3d361b6d	0.04445975
10	0xbe8a9ee8	-0.2707436
11	0xbe3e70c7	-0.18597709
12	0xbd163815	-0.036674578
13	0x3ce2c565	0.027682016
14	0xbc87c939	-0.016575443
15	0x3d6eaca8	0.058270127
16	0xbe3a8875	-0.18216117
17	0x3e0407a2	0.12893537
18	0xbd59b3f9	-0.05315015
19	0xbc7377be	-0.014860092
20	0x3c13560d	0.008992684
21	0x3ed9873d	0.4248599
22	0x3d715c3d	0.058925856
23	0x3d884bb5	0.06655065
24	0xbe0bd27b	-0.1365451
25	0xbdf44784	-0.11927703
26	0x3e0619bb	0.13095753
27	0x3e85f223	0.26161298
28	0xbd3868b5	-0.04502173
29	0xbd53bea5	-0.051695485
30	0xbd771929	-0.06032673
31	0xbe8aedc2	-0.2713452
32	0xbd1bfb63	-0.038081538
33	0x3da936a0	0.08262372
34	0xbbcdf1ba	-0.0062849196
35	0xbd999ea5	-0.07500962
36	0xbdf8997b	-0.12138649
37	0x3eb1dd08	0.34738946
38	0xbc660112	-0.014038341
39	0xbce808e3	-0.02832455
40	0xbecca778	-0.3997152
41	0xbe39234a	-0.18079868
42	0x3e3cc37c	0.18433946
43	0xbcfa1c05	-0.030530939
44	0x3ca2a590	0.019854337
45	0xbd8bf406	-0.06833653
46	0xbdf221e4	-0.118228704
47	0xbe55e78c	-0.2088911
48	0x3d9aef40	0.075651646
49	0x3d87c9b1	0.066302665
50	0x3c38b8a5	0.011274491
51	0xbe7685a0	-0.24074411
52	0xbdad142e	-0.084511146
53	0xbed71548	-0.42008424
54	0x3c5266a1	0.012841851
55	0xbd9852b0	-0.074376464
56	0x3c9de8c6	0.019276034
57	0x3c95060d	0.018191362
58	0xbed62caf	-0.41830966
59	0xbdef9dea	-0.117000416
60	0xbde6c6bf	-0.112683766
61	0x3e3f7fdf	0.18701123
62	0xbd834ca9	-0.06411106
63	0x3d9ee420	0.07758355
64	0x3ea5b6bb	0.32365975
65	0x3d239b4b	0.03994302
66	0xbd65a956	-0.056069694
67	0x3e47a651	0.19497038
68	0x3c15c69f	0.009141593
69	0x3d94e458	0.072701156
70	0xbe20f391	-0.15717913
71	0xbd180eb5	-0.0371234
72	0xbdec21de	-0.11529897
73	0x3b3adf05	0.0028514278
74	0x3dffa520	0.12482667
75	0x3e5b87e2	0.21438554
76	0xbc4ea960	-0.012613624
77	0x3d4cd9a3	0.050012242
78	0xbc0f29b7	-0.008737973
79	0x3d45ccf9	0.04829118
80	0x3dd0690b	0.10176285
81	0x3deec4f6	0.11658661
82	0x3d8a4e53	0.067532204
83	0xbd1fa4b2	-0.038975425
84	0xbce5c5f8	-0.0280485
85	0xbea3ff78	-0.32030845
86	0xbc55d0e3	-0.013050291
87	0xbd279237	-0.040910926
88	0x3dd43c2f	0.103630416
89	0xbd274667	-0.040838625
90	0x3dfafc04	0.122550994
91	0xbddff4e1	-0.10935379
92	0x3da8181e	0.08207725
93	0xbc715abd	-0.014731106
94	0x3d11d2f7	0.035601582
95	0xbe45896f	-0.19290708
96	0xbdcead27	-0.1009162
97	0x3e212e8e	0.15740415
98	0x3d55c990	0.052194178
99	0x3b8a39ae	0.0042183017
100	0x3d8bebb5	0.06832067
101	0xbd831f9a	-0.06402512
102	0x3d8bcece	0.06826554
103	0xbda310b5	-0.07962171
104	0x3e8f32b8	0.27968383
105	0x3d89e8ba	0.06733842
106	0x3e1d189a	0.15341416
107	0xbdb1e523	-0.086862825
108	0xbbb77f53	-0.005599895
109	0xbdb03cfa	-0.0860538
110	0x3df772a0	0.1208241
111	0x3d2d33d9	0.042285774
112	0xbee079b5	-0.43842855
113	0xbc8b0450	-0.01696983
114	0x3c684716	0.014177104
115	0x3e358191	0.17725207
116	0xbe0d9094	-0.13824683
117	0xbdcf5418	-0.101234615
118	0xbc0d6b2b	-0.008631508
119	0x3d8050b7	0.06265395
120	0xbe57ff04	-0.21093374
121	0xbe5fdcc1	-0.21861555
122	0x3e90ce94	0.28282607
123	0xbd911ed5	-0.07085959
124	0xbe192718	-0.1495632
125	0x3e068a71	0.13138749
126	0xbe6f5beb	-0.23374908
127	0x3d2d2741	0.042273764
128	0xbec5eeb3	-0.38658676
129	0xbe257679	-0.16158475
130	0x3ddba0c2	0.107240215
131	0xbd508839	-0.050911162
132	0x3cc75b9e	0.024335679
133	0x3e2eabf3	0.17057781
134	0xbce376f3	-0.02776668
135	0xbcc5d3c6	-0.024148833
136	0x3e3436d8	0.17599046
137	0xbe0e394c	-0.13889045
138	0x3df09346	0.1174684
139	0xbe7cad06	-0.24675378
140	0x3c8cac7d	0.017172093
141	0xbd4a7be5	-0.04943456
142	0xbd7cff9b	-0.061767202
143	0xbe1c9d15	-0.15294297
144	0xbe78eb91	-0.24308611
145	0x3d559289	0.0521417
146	0xbd906400	-0.070503235
147	0x3e3c443e	0.18385407
148	0xbe30d56d	-0.17268915
149	0x3bd1838f	0.006393857
150	0xbd867c76	-0.06566708
151	0x3dd68dea	0.10476287
152	0x3d8801dc	0.0664098
153	0xbc86d91c	-0.016460948
154	0x3da1ed4f	0.07906591
155	0x3dc26aee	0.094930515
156	0xbe82d9ba	-0.25556737
157	0x3dad42ff	0.08460044
158	0x3d8d6009	0.06903083
159	0x3d0d5c21	0.03451169
160	0xbdc3987e	-0.0955057
161	0xbd8621fc	-0.06549451
162	0xbe8f011b	-0.2793053
163	0x3e147ff4	0.14501935
164	0x3d079e26	0.033109806
165	0x3dc6a13a	0.0969872
166	0xbd153908	-0.036431342
167	0x3aa0c711	0.0012266358
168	0x3eec73ec	0.4618219
169	0xbdc501fd	-0.0961952
170	0xbe3d3f63	-0.18481211
171	0xbd8af37c	-0.06784722
172	0x3ba3972f	0.0049923877
173	0x3e11ef3a	0.14251414
174	0x3e8bcf7f	0.27306744
175	0xbeff1518	-0.4982078
176	0xbec542ba	-0.3852747
177	0x3e109f0a	0.14123169
178	0xbd7a6280	-0.061129093
179	0x3e430969	0.19046558
180	0xbe7eb5ed	-0.24874087
181	0xbe155684	-0.14583784
182	0xbc8488fb	-0.016178599
183	0x3e2fd6d9	0.17171802
184	0xbd9813bd	-0.0742564
185	0xbda23882	-0.07920934
186	0x3ee714ff	0.45133206
187	0xbdc680a4	-0.09692505
188	0xbda05575	-0.078288
189	0xbea473d9	-0.32119635
190	0x3d3a0b41	0.04542089
191	0x3c89c7b4	0.016818859
192	0x3ec9cc5a	0.3941372
193	0x3d8747c9	0.06605489
194	0x3e381825	0.1797796
195	0x3d6a6559	0.05722556
196	0xbdbdac5f	-0.09261393
197	0x3dc5f7e4	0.09666422
198	0xbd717e10	-0.058958113
199	0xbd765b6e	-0.060145788
200	0xbe950ce1	-0.29111388
201	0x3bd16ac9	0.0063909036
202	0xbe2111e3	-0.1572948
203	0xbdba1cb9	-0.0908751
204	0xbddb752b	-0.107157074
205	0x3cb7fd87	0.022459758
206	0x3e21a3ed	0.15785189
207	0x3dd56104	0.10418895
208	0x3d7ad866	0.06124153
209	0xbe857c0f	-0.26071212
210	0x3d00f59c	0.03148423
211	0x3d45036b	0.048098963
212	0xbd2a5315	-0.04158314
213	0x3e68b7ba	0.22726336
214	0x3e2ceb9b	0.16886751
215	0x3d49eba3	0.049296986
216	0x3d2bd53f	0.041951414
217	0xbe257d0c	-0.16160983
218	0x3ea61782	0.3243981
219	0xbaff79d3	-0.0019491263
220	0xbd8097e6	-0.06278972
221	0xbd695802	-0.056968696
222	0xbe3ad40d	-0.18244953
223	0x3da5c4f3	0.08094206
224	0xbe548e23	-0.20757346
225	0x3e3f191c	0.18661922
226	0x3e23e565	0.16005476
227	0x3e109919	0.14120902
228	0xbdf09ef3	-0.11749067
229	0x3e59bbcf	0.2126305
230	0x3e9c6444	0.30545247
231	0xbde659ec	-0.1124762
232	0xbe80c632	-0.2515121
233	0x3c96330b	0.018334886
234	0x3d6c80ff	0.057740208
235	0xbbf3f081	-0.007444442
236	0x3bf83493	0.0075746267
237	0x3da4098d	0.08009634
238	0xbdd63fcf	-0.10461389
239	0x3e3b4f08	0.18291867
240	0xbe526e5b	-0.2054991
241	0x3df81a17	0.12114351
242	0xbe08808c	-0.13330287
243	0xbeb4d11e	-0.35315794
244	0xbd82e7c6	-0.063918635
245	0xbd38e5dc	-0.045141086
246	0x3e42b157	0.19012962
247	0x3db4b59f	0.08823704
248	0xbd9e35e0	-0.077251196
249	0xbdde57ba	-0.10856576
250	0xbec6ebff	-0.38851926
251	0x3ea6c032	0.32568508
252	0x3bf19fd7	0.0073737907
253	0xbe862e1f	-0.26207063
254	0xbd03441b	-0.032047372
255	0xbd738784	-0.05945541

fc2.bias f4 [64]
0	0x3c2fb3f2	0.010724055
1	0x3d0bea01	0.03415871
2	0x3d55ff97	0.052245703
3	0x3db8b5b4	0.09019032
4	0x3eeba586	0.46024722
5	0xbe31a223	-0.17347006
6	0x3dcec925	0.10096959
7	0x3dc8b0d3	0.097993515
8	0x3deab31e	0.11459945
9	0x3ed59275	0.417133
10	0xbdb9801e	-0.090576395
11	0x3e449d2f	0.19200586
12	0x3dce4ff1	0.10073841
13	0xbccc8c70	-0.02496931
14	0xbd26caac	-0.040720627
15	0x3e39a1f0	0.1812818
16	0x3d99b693	0.075055264
17	0xbb6dbeea	-0.0036277124
18	0x3bd87763	0.006606029
19	0x3e4aebc1	0.19816495
20	0x3e78ea0d	0.24308033
21	0x3ee4f629	0.44719055
22	0xbd849bba	-0.06475015
23	0xbc8e239f	-0.01735097
24	0xbdaea764	-0.08528021
25	0xbe5a23f5	-0.21302779
26	0x3d134455	0.03595384
27	0x3aea46ad	0.0017873846
28	0xba166d26	-0.000573831
29	0x3e98cd6d	0.29844227
30	0xbdc040a5	-0.0938733
31	0x3dead6b9	0.11466736
32	0x3d262a72	0.040567823
33	0x3e3bfa66	0.18357238
34	0x3d0452b8	0.03230545
35	0x3babe064	0.0052452553
36	0xbe271c78	-0.16319454
37	0xbe62b88d	-0.22140713
38	0x3b3aad6d	0.0028484717
39	0x3dc0b8f5	0.09410278
40	0xbda168a2	-0.07881285
41	0x3ef28eb2	0.47374493
42	0x3e63d4f5	0.22249205
43	0xbda5ba1c	-0.08092138
44	0xbcffa501	-0.03120661
45	0xbe28bf18	-0.16479146
46	0x3e9a755b	0.3016766
47	0xbe1c9568	-0.15291369
48	0x3dc20d99	0.0947525
49	0xbd7bc89b	-0.06147061
50	0xbd712359	-0.0588716
51	0x3ed12fa6	0.40856665
52	0xbd2407a5	-0.040046353
53	0xbd056aea	-0.032572664
54	0x3e59e2ea	0.21277967
55	0xbda2b18c	-0.07944021
56	0xbdd93a51	-0.10606826
57	0xbdc365e7	-0.09540921
58	0x3df4f73a	0.11961217
59	0xbd98e7ab	-0.07466062
60	0x3e1db191	0.15399767
61	0x3e91ec54	0.28500617
62	0x3dd68237	0.10474055
63	0xbe78c35e	-0.24293277

fc3.weight f4 [4, 64]
0	0x3ea88ea4	0.32921326
1	0x3e054e88	0.13018239
2	0x3ec2c8df	0.38043877
3	0x3d585d41	0.05282331
4	0x3e4f14f2	0.20222834
5	0x3d159dab	0.036527317
6	0x3d995fde	0.07488988
7	0xbe1bf581	-0.15230371
8	0x3dbc1358	0.09183377
9	0x3dc68d13	0.096948765
10	0xbef47f0c	-0.4775318
11	0x3e5c4b99	0.21513213
12	0x3f162e18	0.58664083
13	0x3e0252e1	0.12726928
14	0xbdcd301d	-0.100189425
15	0x3c36c9fc	0.011156555
16	0xbe4b5608	-0.19857037
17	0x3d622c93	0.05521829
18	0xbcf39a5a	-0.029736686
19	0x3e75e424	0.2401281
20	0x3df825ef	0.1211661
21	0x3e3e271e	0.1856961
22	0xbe4786fe	-0.19485089
23	0x3eb5a570	0.3547778
24	0x3e85f1a8	0.26160932
25	0xbdd110a4	-0.10208252
26	0xbe419a87	-0.18906604
27	0x3e329d88	0.17442906
28	0xbc9799c7	-0.018505944
29	0x3e66deca	0.22545925
30	0xbd4e8b0e	-0.05042558
31	0x3e0c6e54	0.13713962
32	0x3ee0e43b	0.43924126
33	0x3e883dac	0.26609552
34	0x3da1a112	0.0789205
35	0x3e3c1686	0.18367967
36	0x3c0bc9e8	0.008532025
37	0xbe989e21	-0.29808143
38	0xbd577a35	-0.05260678
39	0x3dd92672	0.10603036
40	0x3ed18ce3	0.409278
41	0x3e092120	0.13391542
42	0x3e08ae4c	0.13347739
43	0xbe082a4b	-0.13297383
44	0x3c55f4e1	0.013058872
45	0xbe22b939	-0.1589097
46	0x3e347903	0.17624287
47	0x3df0d0f0	0.11758602
48	0xbcbdc4b5	-0.023165086
49	0x3ec1662e	0.3777327
50	0x3ea1a581	0.31571582
51	0x3e18957c	0.14900774
52	0x3e3f00b6	0.18652615
53	0xbe7bb4b3	-0.2458065
54	0x3e11ac95	0.14225991
55	0x3eb7a9bb	0.35871682
56	0xbf07155b	-0.5276696
57	0xbdc7f06b	-0.09762653
58	0x3eebf5cc	0.46085966
59	0x3ea0d2d8	0.3141086
60	0xbe6f3bb3	-0.23362617
61	0x3e29da0a	0.16587082
62	0x3d790d05	0.060803432
63	0xbdaf723c	-0.0856671
64	0x3e953abd	0.29146376
65	0x3d6b03d3	0.057376694
66	0x3ebbb259	0.36659506
67	0x3e0b31b6	0.13593182
68	0x3e2989fb	0.16556542
69	0x3dafc0a5	0.08581666
70	0x3dcb8754	0.09937921
71	0x3db50896	0.08839528
72	0x3daf057e	0.085459694
73	0x3dd72fdb	0.105071746
74	0xbe8ab98b	-0.27094683
75	0x3e7123a0	0.23548746
76	0x3eb89ceb	0.3605722
77	0x3e9819cd	0.29707184
78	0xbdeaa87b	-0.11457916
79	0x3e25fd97	0.16210018
80	0xbe8ec790	-0.2788663
81	0x3da20b5e	0.07912324
82	0x3c9264e3	0.017870372
83	0x3e097a78	0.13425624
84	0x3df69b71	0.12041367
85	0x3e63efd5	0.22259457
86	0xbc75391b	-0.014967228
87	0x3ebf1acb	0.3732513
88	0x3e922c2b	0.28549322
89	0xbe25f544	-0.16206843
90	0xbd9ad2b1	-0.075597174
91	0x3d3f454f	0.046696957
92	0x3dfb3867	0.12266617
93	0x3e1dba87	0.15403186
94	0x3d8b0f38	0.06790012
95	0x3e26df15	0.16296037
96	0x3e7b759e	0.24556586
97	0x3e1af776	0.15133461
98	0x3e38f59f	0.18062447
99	0x3ef970a9	0.48718765
100	0x3d582ad4	0.05277522
101	0xbe82f1f1	-0.25575212
102	0x3c99c3f6	0.0187702
103	0x3e0c369f	0.13692711
104	0x3f02291e	0.5084399
105	0x3e215241	0.15754034
106	0x3e49fbe7	0.19725
107	0xbda11a87	-0.07866388
108	0x3ce99725	0.028514454
109	0xbd80e962	-0.06294514
110	0x3e42a348	0.190076
111	0xbd5f6675	-0.05454107
112	0x3d9df62e	0.07712971
113	0x3ebeae46	0.37242335
114	0x3e4d2bcc	0.20036238
115	0x3d237729	0.03990856
116	0x3e5e2533	0.21693878
117	0xbda3a991	-0.079913266
118	0x3e390ff2	0.18072489
119	0x3f0817b0	0.53161144
120	0x3c44f930	0.012022302
121	0xbe5322f5	-0.20618804
122	0x3ebc0bdb	0.36727795
123	0x3eacd4a4	0.33755982
124	0x3dc2eb2d	0.095175125
125	0x3e09efd4	0.13470393
126	0x3e2966be	0.165431
127	0xbe2f7a14	-0.17136413
128	0x3e77489d	0.24148794
129	0x3e303546	0.17207822
130	0x3eefb46e	0.46817344
131	0x3ecb2d89	0.39683178
132	0x3e3a0b75	0.18168433
133	0x3e8f050f	0.27933547
134	0x3e868f45	0.2628118
135	0x3e039aba	0.12851992
136	0x3e133060	0.14373922
137	0x3e0e3572	0.13887575
138	0xbee98a99	-0.45613554
139	0x3e64bc3b	0.22337429
140	0x3ea33dd6	0.31883115
141	0x3e781191	0.24225451
142	0x3dc22b7c	0.0948095
143	0x3e1f8eb1	0.15581776
144	0x3e13c7bc	0.14431661
145	0x3d6ed55a	0.058308937
146	0x3dcca325	0.09992055
147	0x3d97f70d	0.07420168
148	0x3d1a3d8a	0.037656344
149	0x3e5c9fdf	0.21545361
150	0xbf045793	-0.5169613
151	0x3e5b7259	0.21430339
152	0x3f1b8e8d	0.6076439
153	0xbe973939	-0.29535845
154	0xbe610695	-0.21975167
155	0xbdc8103a	-0.0976872
156	0xbe0dd5de	-0.13851115
157	0x3ea6bf74	0.32567942
158	0xbc2829a1	-0.010263831
159	0x3bfa01b4	0.0076295976
160	0x3e935802	0.28778082
161	0x3cdfff52	0.027343426
162	0x3e7d1cb6	0.24717984
163	0x3f1fe40b	0.6245734
164	0x3df987bc	0.121840924
165	0xbe9baf5f	-0.30407235
166	0x3da313c0	0.079627514
167	0x3dafc6b4	0.085828215
168	0x3e855125	0.2603847
169	0x3e28d481	0.16487314
170	0x3e997a88	0.29976296
171	0xbd9a95ea	-0.07548125
172	0x3ee90f12	0.4551931
173	0xbe1bd911	-0.15219523
174	0x3e3a079e	0.18166968
175	0x3dac5fea	0.08416732
176	0x3e3af870	0.18258834
177	0xbd1cc29c	-0.03827153
178	0x3bccd888	0.0062513985
179	0x3e76d4e3	0.24104647
180	0xbd115d12	-0.03548915
181	0x3e49aa99	0.19693984
182	0x3e2a6c39	0.16642846
183	0xbbef008b	-0.007293766
184	0xbe014416	-0.12623629
185	0xbe6a4408	-0.22877514
186	0x3e833550	0.25626612
187	0x3ef4efff	0.47839352
188	0xbd9738de	-0.073838934
189	0x3d894abb	0.06703707
190	0xbeb20b9c	-0.34774482
191	0xbe723bc2	-0.23655608
192	0x3eb9f5f0	0.36320448
193	0x3e22c876	0.15896782
194	0x3eb9c737	0.362848
195	0xbe983c9e	-0.29733747
196	0x3e15ae29	0.14617218
197	0xbe0443e5	-0.12916525
198	0xbcec3f1d	-0.028838689
199	0x3e1b15d0	0.1514504
200	0x3e98eec7	0.29869673
201	0x3e4df5d8	0.20113313
202	0x3da739bc	0.08165309
203	0x3dd28d59	0.10280866
204	0x3e9e91aa	0.30970508
205	0x3eb94c97	0.36191246
206	0xbe11e7f2	-0.14248636
207	0x3e2d6252	0.16932037
208	0x3e33aa25	0.17545374
209	0x3ec2408e	0.37939876
210	0x3ea7da99	0.32783964
211	0x3dc6eed2	0.0971352
212	0x3d9e66d2	0.07734455
213	0x3e8e5ab6	0.27803582
214	0xbe6649cc	-0.22489089
215	0x3eadb994	0.33930647
216	0x3e976eaf	0.29576632
217	0xbe93a9ce	-0.28840488
218	0xbdd9bfdc	-0.106322974
219	0x3ea3b6f8	0.31975532
220	0x3ea13c5e	0.3149137
221	0x3e038319	0.12842979
222	0xbe3a24a4	-0.1817804
223	0x3e0e77ed	0.13912936
224	0x3e88f7ce	0.2675156
225	0x3d658a89	0.05604032
226	0x3dac669a	0.08418007
227	0xbdc2dda0	-0.09514928
228	0xbe2a6239	-0.16639031
229	0xbe19ee20	-0.15032244
230	0x3e4afaa3	0.19822173
231	0x3e3fddc7	0.18736945
232	0x3e074299	0.13208999
233	0x3e641e08	0.22277081
234	0x3e73b812	0.23800686
235	0xbed658a5	-0.41864505
236	0x3ec0e541	0.37674907
237	0xbd9571e2	-0.07297112
238	0x3e01ac09	0.12663282
239	0xbc63c275	-0.013901343
240	0x3e073f27	0.13207684
241	0x3e4b668f	0.19863342
242	0x3efdb733	0.49553832
243	0x3e2994d7	0.16560684
244	0x3e5f70fc	0.21820444
245	0x3d431c45	0.04763438
246	0x3e79485e	0.24344012
247	0x3f32068a	0.6954123
248	0xbe42e847	-0.1903392
249	0xbebe342d	-0.37149182
250	0x3e458d3e	0.19292161
251	0x3d274829	0.0408403
252	0xbe2039af	-0.15647005
253	0x3df20ea3	0.11819198
254	0x3e3da587	0.18520175
255	0xbe87fe11	-0.26561025

fc3.bias f4 [4]
0	0x3e9daab9	0.30794314
1	0x3e8d9039	0.27649096
2	0x3e1d6628	0.15371001
3	0x3e4d5d12	0.20055035
